Running CNN for Hoechst
Training dataset image shape (1884, 128, 128, 1)
Training dataset label shape (1884, 2)
Test dataset image shape (116, 128, 128, 1)
Test dataset label shape (116, 2)
Model: "sequential"
_________________________________________________________________
 Layer (type)                Output Shape              Param #   
=================================================================
 conv2d (Conv2D)             (None, 126, 126, 128)     1280      
                                                                 
 max_pooling2d (MaxPooling2  (None, 63, 63, 128)       0         
 D)                                                              
                                                                 
 conv2d_1 (Conv2D)           (None, 61, 61, 128)       147584    
                                                                 
 max_pooling2d_1 (MaxPoolin  (None, 30, 30, 128)       0         
 g2D)                                                            
                                                                 
 flatten (Flatten)           (None, 115200)            0         
                                                                 
 dense (Dense)               (None, 256)               29491456  
                                                                 
 dropout (Dropout)           (None, 256)               0         
                                                                 
 dense_1 (Dense)             (None, 2)                 514       
                                                                 
=================================================================
Total params: 29640834 (113.07 MB)
Trainable params: 29640834 (113.07 MB)
Non-trainable params: 0 (0.00 Byte)
_________________________________________________________________
None
Epoch 1/20
24/24 - 21s - loss: 0.7062 - accuracy: 0.5554 - val_loss: 0.6555 - val_accuracy: 0.4748 - 21s/epoch - 863ms/step
…
24/24 - 20s - loss: 0.4679 - accuracy: 0.7817 - val_loss: 0.6602 - val_accuracy: 0.6578 - 20s/epoch - 829ms/step
2/2 - 0s - loss: 0.8207 - accuracy: 0.5690 - 342ms/epoch - 171ms/step
Running CNN for Hoechst-EB1
Training dataset image shape (1884, 128, 128, 2)
Training dataset label shape (1884, 2)
Test dataset image shape (116, 128, 128, 2)
Test dataset label shape (116, 2)
Model: "sequential_2"
_________________________________________________________________
 Layer (type)                Output Shape              Param #   
=================================================================
 conv2d_4 (Conv2D)           (None, 126, 126, 128)     2432      
                                                                 
 max_pooling2d_4 (MaxPoolin  (None, 63, 63, 128)       0         
 g2D)                                                            
                                                                 
 conv2d_5 (Conv2D)           (None, 61, 61, 128)       147584    
                                                                 
 max_pooling2d_5 (MaxPoolin  (None, 30, 30, 128)       0         
 g2D)                                                            
                                                                 
 flatten_2 (Flatten)         (None, 115200)            0         
                                                                 
 dense_4 (Dense)             (None, 256)               29491456  
                                                                 
 dropout_2 (Dropout)         (None, 256)               0         
                                                                 
 dense_5 (Dense)             (None, 2)                 514       
                                                                 
=================================================================
Total params: 29641986 (113.08 MB)
Trainable params: 29641986 (113.08 MB)
Non-trainable params: 0 (0.00 Byte)
_________________________________________________________________
None
Epoch 1/20
24/24 - 21s - loss: 0.6319 - accuracy: 0.6589 - val_loss: 0.3261 - val_accuracy: 0.8488 - 21s/epoch - 865ms/step
…
24/24 - 20s - loss: 0.0808 - accuracy: 0.9721 - val_loss: 0.1238 - val_accuracy: 0.9416 - 20s/epoch - 826ms/step
2/2 - 0s - loss: 0.2971 - accuracy: 0.8879 - 344ms/epoch - 172ms/step
Running CNN for GM130
Training dataset image shape (1848, 135, 135, 1)
Training dataset label shape (1848, 2)
Test dataset image shape (113, 135, 135, 1)
Test dataset label shape (113, 2)
Model: "sequential_3"
_________________________________________________________________
 Layer (type)                Output Shape              Param #   
=================================================================
 conv2d_6 (Conv2D)           (None, 133, 133, 128)     1280      
                                                                 
 max_pooling2d_6 (MaxPoolin  (None, 66, 66, 128)       0         
 g2D)                                                            
                                                                 
 conv2d_7 (Conv2D)           (None, 64, 64, 128)       147584    
                                                                 
 max_pooling2d_7 (MaxPoolin  (None, 32, 32, 128)       0         
 g2D)                                                            
                                                                 
 flatten_3 (Flatten)         (None, 131072)            0         
                                                                 
 dense_6 (Dense)             (None, 256)               33554688  
                                                                 
 dropout_3 (Dropout)         (None, 256)               0         
                                                                 
 dense_7 (Dense)             (None, 2)                 514       
                                                                 
=================================================================
Total params: 33704066 (128.57 MB)
Trainable params: 33704066 (128.57 MB)
Non-trainable params: 0 (0.00 Byte)
_________________________________________________________________
None
Epoch 1/20
24/24 - 23s - loss: 0.7382 - accuracy: 0.5176 - val_loss: 0.6841 - val_accuracy: 0.5108 - 23s/epoch - 942ms/step
…
24/24 - 22s - loss: 0.0974 - accuracy: 0.9723 - val_loss: 0.7860 - val_accuracy: 0.7676 - 22s/epoch - 901ms/step
2/2 - 0s - loss: 0.8618 - accuracy: 0.7345 - 369ms/epoch - 184ms/step
Running CNN for Hoechst-GM130
Training dataset image shape (1848, 135, 135, 2)
Training dataset label shape (1848, 2)
Test dataset image shape (113, 135, 135, 2)
Test dataset label shape (113, 2)
Model: "sequential_4"
_________________________________________________________________
 Layer (type)                Output Shape              Param #   
=================================================================
 conv2d_8 (Conv2D)           (None, 133, 133, 128)     2432      
                                                                 
 max_pooling2d_8 (MaxPoolin  (None, 66, 66, 128)       0         
 g2D)                                                            
                                                                 
 conv2d_9 (Conv2D)           (None, 64, 64, 128)       147584    
                                                                 
 max_pooling2d_9 (MaxPoolin  (None, 32, 32, 128)       0         
 g2D)                                                            
                                                                 
 flatten_4 (Flatten)         (None, 131072)            0         
                                                                 
 dense_8 (Dense)             (None, 256)               33554688  
                                                                 
 dropout_4 (Dropout)         (None, 256)               0         
                                                                 
 dense_9 (Dense)             (None, 2)                 514       
                                                                 
=================================================================
Total params: 33705218 (128.58 MB)
Trainable params: 33705218 (128.58 MB)
Non-trainable params: 0 (0.00 Byte)
_________________________________________________________________
None
Epoch 1/20
24/24 - 23s - loss: 0.8737 - accuracy: 0.5535 - val_loss: 0.5741 - val_accuracy: 0.6054 - 23s/epoch - 950ms/step
…
